anomaly model/athlete_model.tflite (tflite, 8744 bytes, 7 tensors)

arith.constant f4 [64, 5]
00000000: f765 3abe ab08 35bd 07b2 f33d 66fb 783e
00000010: 8349 7fbe 09a7 443e d037 85be 4cfa 54be
00000020: 4ee8 21be c938 833d 5897 78be 17a7 49bd
00000030: 3f0c 1c3e 6c63 b1bc 63ea ed3c f621 68be
00000040: 592d 54bd 3d18 09be eb33 02be ba7c 33bd
00000050: 0a14 eabd 39b8 123e 6f02 7fbe bf5a 933e
00000060: fed3 d5bd e606 fa3d 4c69 483e 5025 1dbe
00000070: 2139 28bd 061e 5f3e 087e 74be 5fe7 8fbe
00000080: 6027 5c3e 2f4f c93d 9b6a 7e3e a862 283d
00000090: be26 53bc e5b6 77bd 5af5 03bd 6351 85be
000000a0: d78f 903e 2b4d 5d3c 762c e73d d997 f53d
000000b0: bab3 8a3e 060a 5abe 013f 413e 8dca dc3c
000000c0: b67d 903e dddd 793d d7cc 383e 563d 6dbe
000000d0: 62ef 063e 339d 373e 40f0 623d d42a 4e3e
000000e0: 4c2f 523e f421 e43c c0eb b2be 5417 97be
000000f0: 027e 4c3d 0d57 6d3c 2403 d7bd 8a86 fbbd
00000100: 1ce1 0fbe c662 0fbe 11b9 0d3e a71d 26bd
00000110: c7fd 57be 90e9 873d d11c a53d e1d5 733e
00000120: f457 893c cdfa 30be 69cf ae3e bc87 89be
00000130: f95f 37be 05e3 793e f1be 8ebe fd11 813e
00000140: 1fcf 2c3e aee6 3fbe 58cb c53d 257b 7b3c
00000150: 11e1 8b3d 5f81 813e 8cc4 0abe 0794 47bd
00000160: c41f 8c3e 1aaa 6dbc a78c 5bbe c6cd 8f3c
00000170: 3d0c 06bc 8b0f cebd 1909 533e 0767 39be
00000180: 1b41 c5be f6ea dcba 6722 29be d2c2 ce3d
00000190: 1d3c 21be 10b5 513e 15da 043e ab72 38be
000001a0: a146 963e 162c 993d ca44 03bd fe28 6bbe
000001b0: c9d6 4c3e d1d6 c73e 8534 bcbe 6841 b93d
000001c0: dddd 80be 65fe 90bd 74c6 7cbe de7e 54be
000001d0: 9201 7ebe 4a5e 0fbe 6f61 7ebe 501d 54be
000001e0: ab99 893e 492b 94be 7eae 3e3d 7d7c 7ebe
000001f0: b696 ccbd 5eef c33d 5790 b0bd 7061 8b3d
00000200: d26d 713e d2ab 05be 7175 55be 17dc a5be
00000210: adf4 8b3d 0887 6d3d 2601 9cbd 2d20 933e
00000220: f9bb a63e 9e93 1dbe 2947 abbe 3ac2 d6bc
00000230: 0410 293e 6a25 633d 5006 9bbe 1c3d 18bd
00000240: 94a8 94be 63a6 7e3e 32b1 a63e 07db 0e3e
00000250: 60b8 4bbe cb84 98be ba77 93bc 3a46 48be
00000260: 5d65 7ebe 3684 e0bd dbc9 cdbd e577 6e3e
00000270: 84ed 593e 30df 9e3e e6ec 6d3e 75e8 b9be
00000280: 3882 373e 2c43 7a3e 0ad5 12bc db3f c2be
00000290: 2e4d 803c 3fdd 773e 948e 30bc e7b7 a33e
000002a0: b889 533e 5515 19be 68fe 58be dd31 80be
000002b0: 3ee2 bbbd a493 babc b080 e23d a2e4 13bc
000002c0: c91f f43d 9c98 2dbe 640e 893e eaf7 36be
000002d0: f042 023e 8da3 9b3e 513a 56bc 0301 99be
000002e0: b2af 8b3e 6006 093e 71f5 1f3d d0f2 b6b9
000002f0: 27d4 3bbe 45bf a23e 8837 703e 9a83 81bc
00000300: 06c3 913e e593 1b3e 2385 b83e b9be fc3d
00000310: 0234 35be 25fc 48be 8cee 5d3e afc7 953d
00000320: 73ae 62be bd05 993e aa29 993d 7952 0e3d
00000330: d09a e33e d4a8 ed3c 9bc2 d63d 2a64 853e
00000340: 2306 32be 56e0 b0be dcd3 29bd 3631 95bb
00000350: 787b 28be 7a2a 9c3e 6311 c63e a22c 8dbe
00000360: fe84 60bd e557 f33d f60c 97bd 4132 a93d
00000370: 1ff6 263e eda9 97be 62d2 3a3e c32f 823d
00000380: 5f34 36bd e976 0dbe 09e4 5f3e b886 723e
00000390: 96de 73be f9fc f3bd 91e4 dabd 31ce 623c
000003a0: 792b 9ebe dad6 f83b 446e e8bc 417f 0d3e
000003b0: 1552 b8be 8595 1b3e ad9e 53be ed08 d0bd
000003c0: f42f 7f3e 9890 6bbe 8952 7c3e 31ab 04be
000003d0: fbe2 dd3c c988 523e cc6a a1bd 3a4a 823b
000003e0: b3d2 9dbe 3787 7f3d 1661 e5bd b2fd 3fbe
000003f0: 38e7 d6bd a143 aabe 1c4b 853e b9a9 36be
-0.18202959 -0.04419772 0.118991904 0.24314651 -0.24930386 0.19204344 -0.26019144 -0.20798606
-0.15811273 0.06407315 -0.24276483 -0.049231615 0.15239047 -0.021653853 0.029042428 -0.22669205
-0.05180106 -0.13388152 -0.12715118 -0.04382012 -0.114296034 0.14328088 -0.24903272 0.2878017
-0.10440825 0.12208347 0.19571418 -0.15346265 -0.041070107 0.21788797 -0.23876202 -0.2810621
0.21499395 0.09829556 0.24845354 0.04110971 -0.012887655 -0.060477156 -0.032216407 -0.26038656
0.2823474 0.013507168 0.11287777 0.11991853 0.27090245 -0.21292886 0.1887169 0.026952052
0.2822091 0.0610026 0.1804689 -0.23167929 0.13177255 0.1793106 0.0554049 0.20133525
0.20525855 0.027848221 -0.34945488 -0.29509985 0.049924858 0.014486087 -0.10498646 -0.12281521
-0.14050716 -0.14002523 0.13840128 -0.040555622 -0.21092902 0.066363454 0.08062137 0.23812057
0.016765572 -0.17283173 0.34142616 -0.2686137 -0.17907704 0.24403007 -0.27880052 0.25209036
0.16875885 -0.18740341 0.09657925 0.015349184 0.068300374 0.25294015 -0.13551539 -0.048725154
0.27367985 -0.014505887 -0.21440373 0.017554175 -0.008181629 -0.10061558 0.20608939 -0.18105708
-0.38526234 -0.0016854692 -0.1651703 0.10095753 -0.15745588 0.20479226 0.12973817 -0.18012492
0.2935076 0.07479112 -0.032048024 -0.22964856 0.20003809 0.3903108 -0.3675882 0.090456784
-0.25169268 -0.07079772 -0.24685079 -0.20751521 -0.24805287 -0.14000812 -0.24841855 -0.20714307
0.26875052 -0.28939274 0.046553127 -0.24852176 -0.09989683 0.0956714 -0.08621281 0.06805694
0.2357705 -0.13053825 -0.20845582 -0.32394478 0.068337776 0.057990104 -0.076174065 0.28735486
0.32565287 -0.15388343 -0.33452728 -0.026215661 0.16510016 0.055455603 -0.30278254 -0.037167653
-0.29034865 0.24868159 0.32557064 0.1395074 -0.19894552 -0.29788813 -0.018001426 -0.1955804
-0.24843355 -0.10962717 -0.100482665 0.23287924 0.21282011 0.31029654 0.23234901 -0.36310163
0.17920768 0.24439687 -0.008961925 -0.37939343 0.015661802 0.24205492 -0.010776181 0.31976244
0.20658004 -0.14949544 -0.21190798 -0.25038043 -0.09174012 -0.022775479 0.110597014 -0.009026678
0.11920125 -0.16952747 0.26768792 -0.17868009 0.12720847 0.30398217 -0.013075427 -0.29883584
0.27282482 0.13381338 0.03905243 -0.00034894655 -0.18342648 0.31786552 0.23458683 -0.015809823
0.28469104 0.15193136 0.36039075 0.12341065 -0.1769562 -0.19627436 0.2167303 0.07313477
-0.2213686 0.2988719 0.0747865 0.03474662 0.4445405 0.029011168 0.10486337 0.26052982
-0.17385153 -0.34546155 -0.04146181 -0.0045529855 -0.1645335 0.30501157 0.3868514 -0.27573115
-0.05481433 0.11881999 -0.07375519 0.08261538 0.16304825 -0.2962183 0.18244317 0.06356766
-0.04448354 -0.13814892 0.21864332 0.23684204 -0.23815379 -0.11913485 -0.10688127 0.013843105
-0.30892542 0.0075939717 -0.028372891 0.13818075 -0.36000124 0.15193756 -0.20665999 -0.101579525
0.24920636 -0.23004377 0.2464086 -0.1295593 0.027085772 0.20559992 -0.07881698 0.0039761337
-0.30824813 0.06238481 -0.11200158 -0.18749121 -0.1049332 -0.33254722 0.26033866 -0.17838182

arith.constant1 f4 [64]
00000000: 46ee b6bc c3c1 24bd 020c 133d 3d86 a33c
00000010: b3be 4a3e e581 f4bc 5ead a1bd 6f93 a5bd
00000020: 01cb 45bc 1a63 ae3d 41f3 54bd 3029 f13b
00000030: 981a b9bb ae95 ae3c dc2e f23d 26f1 91bc
00000040: d7d3 acbc fe00 81bc 2b5e f53c a3ba d8bd
00000050: 0137 b73d af21 963c 357c 0b3e d471 95bd
00000060: cbc2 afbd 8e6e 97bd a2f5 6ebd 2967 d7bc
00000070: 75ae dcbc ad1b 7abc 409e d7bc 6bf1 7bbc
00000080: f868 673d d7ee 00bd 7aac b4bd 51f6 213d
00000090: 90cf dc3d b28e b53d 8d14 f13c 7504 06bd
000000a0: 06ee fb3d a0b6 27bd bf7b f43b 011d 9f3c
000000b0: e4b4 b0bd d091 8b3d 987c 8b3c 4524 98bd
000000c0: f707 53bd c050 0fbd 1e7b cdbb 7de7 21be
000000d0: 5896 2ebd 736a 503d c554 f0bc 374c 18bd
000000e0: 59e2 83bc 4b95 d83c 772c 0cbd c2ea a7bc
000000f0: 023b 9a3d 2e05 3cbd 416c db3c e70f c03d
-0.022330415 -0.040223848 0.035900123 0.01996147 0.19799308 -0.029847095 -0.07894395 -0.08084761
-0.012072326 0.08514996 -0.051989798 0.0073596463 -0.005648922 0.021311607 0.11825344 -0.017815184
-0.021097107 -0.015747543 0.02995213 -0.10582473 0.08946038 0.018326608 0.136216 -0.072971016
-0.08582076 -0.073941335 -0.058339722 -0.026294308 -0.026938656 -0.0152653875 -0.026320577 -0.015377383
0.05649659 -0.031477775 -0.0882196 0.039541546 0.10781777 0.088651076 0.029428745 -0.032719094
0.12301259 -0.04094565 0.0074610407 0.01942301 -0.08628252 0.06814921 0.017027184 -0.07428793
-0.051521268 -0.03498912 -0.00627078 -0.15810962 -0.042623848 0.050882768 -0.029337296 -0.03718206
-0.016099142 0.026438376 -0.034222092 -0.020497683 0.07530786 -0.045903377 0.026785018 0.09378033

arith.constant2 f4 [32]
00000000: a2e0 de3c e29f dfbc d068 26bd 06d9 97bc
00000010: 7595 5e3c b091 44bd 98b6 733d a93b 743c
00000020: ca17 bf3b f5c7 4abd d609 683d 2047 89bd
00000030: 6627 283d 4000 6e3d 9fab 4b3c 9830 073d
00000040: 58df 9cbd f54e 80bd 0ac1 ca3c 32d0 d23c
00000050: 2d6b 0a3d 5516 773d 0610 aa3c 6657 9d3d
00000060: edd1 43bd aa9c 9d3c 56c8 983d 6693 79bc
00000070: 980f 993d 885d 783d 4f60 533c 9396 2abb
0.027206723 -0.027297918 -0.0406273 -0.018536102 0.013585438 -0.0479905 0.059500307 0.014906802
0.0058316933 -0.0495071 0.056650005 -0.06703019 0.0410532 0.058105707 0.012431054 0.033005327
-0.07659787 -0.0626506 0.024750251 0.02573404 0.033793617 0.06032403 0.020759594 0.076826856
-0.047807623 0.019239742 0.07460086 -0.015232896 0.074736774 0.060636073 0.01290138 -0.002602969

arith.constant3 f4 [16]
00000000: ca37 2f3d eef7 d93c 507e 7c3d 6ab2 f2bc
00000010: 783a 57bd 45e9 0cbd aec3 0f3e b8eb 09bc
00000020: 338e 92bc 5993 c73c 27af 1d3d 3440 a0bc
00000030: dcc1 793c 4a21 173b 309f d837 253e 2e3d
0.042777814 0.02660748 0.0616439 -0.02962609 -0.052545995 -0.03440215 0.1403949 -0.008418016
-0.017890071 0.024362253 0.038497116 -0.019561864 0.015243974 0.0023060613 2.5823334e-05 0.042539734

arith.constant5 f4 [1, 16]
00000000: 38a4 abbe b7f0 ed3e 8694 d9bd cf17 50be
00000010: 05c7 d1bd 31dc 50bd 31de 4ebe afaf 5fbe
00000020: 8f8a 1e3c b0dc 363e d195 22bf 2e91 da3e
00000030: 83f3 8c3e faea 963e 2a2c cb3e 6d10 c7be
-0.33523726 0.46472713 -0.10624032 -0.20321582 -0.10243038 -0.05099124 -0.20201947 -0.21844362
0.00967659 0.17857623 -0.6350985 0.42688888 0.27529535 0.29476148 0.39682132 -0.3887972

arith.constant6 f4 [16, 32]
00000000: 8e39 4cbe bb0b dbbd fbf2 873e 8d0f 373d
00000010: 5cb9 a43e d556 a6be 6708 5b3e 9e34 3b3e
00000020: a9c2 89be afb0 9abe 95a1 023f dfb5 9abd
00000030: 9508 9a3e 55dc 9e3e 7b8c bc3e 04c9 363e
00000040: f80c 6fbe 474e 9dbe 2651 35bd 7cc8 1d3e
00000050: 3e38 cc3d 3987 dd3e b41c a53c 6ba2 6a3e
00000060: 5f1e aa3d 9225 143e 5028 d43d 68b1 8bbe
00000070: 13a0 c13d cbd3 843e fb07 5b3e 212a a6be
00000080: 5df6 b23e d237 833e 0cd1 fc3e bc37 f63e
00000090: 890f 37be a35d be3d a559 79bd 2079 ee3c
000000a0: fb36 86be 11ea af3d 5955 e43d e38b 773e
000000b0: 789d df3c 832f 97be b229 a2bc 1c62 2e3e
000000c0: 3916 ca3e f3f2 8d3e c7b8 ef3e fdbb ed3b
000000d0: eff4 8b3d a957 983d b79c a9be 94fd a53e
000000e0: ef5e ce3d a3fb 24be 94bf adbe 8fd9 f5bd
000000f0: 4739 be3c 3d92 bbbe c751 9dbe a786 c43e
00000100: f82b 46be 1db7 d53d 08fa b1bd 4800 8ebe
00000110: c4a7 343d e31d ab3c 4bf3 f33c 158d 90be
00000120: 5825 313c 2613 c63c 2d60 403e 7ea7 5abd
00000130: 3384 a5bd 4935 9d3e f79e 963e 46f0 153e
00000140: ed89 a6be 80fc b83e bc6d b03d c4b4 913e
00000150: 55f1 0ebe 60be cb3e d182 963e 9421 04bd
00000160: bcbe 81be da6b e6bd cde7 fb3d 9904 a2be
00000170: c0a3 cb3e 8347 a8bd 0fd5 8bbc 1233 cfbd
00000180: 19f3 143e 70ad 04be 7629 433e 0e39 b93d
00000190: cf64 7f3c 0438 ddbd 2cc9 873e 950c 093c
000001a0: e2c6 983e 6123 773d a9ac 85be 0379 3bbe
000001b0: 0a26 ba3e ac4a 733e c07f a03e 3bcb 2a3e
000001c0: f922 593d a578 b8be 3018 95be 8075 383e
000001d0: 703b b23d 84d6 e13c 4a22 afbe 4574 9ebe
000001e0: 2981 8ebe 0197 b1bd aa57 0d3e fc78 6dbe
000001f0: 11ce 5cbe bb8c eabd c85a 4fbe 70d1 b6bd
00000200: 5785 0e3e b722 263e 2341 7fbc 1e60 8bbe
00000210: 98ca b63d d41b b3be 76b5 98be d84d 85be
00000220: 1dd7 a7be 8a96 773d 95aa a1be 06e9 b13d
00000230: c562 23be b060 69be feaf 55bd 1409 73be
00000240: 4936 5f3e 4bd7 8cbe e371 9e3d 1f2a 8bbd
00000250: 760d 853e bf33 a8bd 283b 813e 25db 7bbe
00000260: 85a7 3a3e 3ee0 bfbe d46a a4be 00c1 8b3e
00000270: 8ca2 61be 9bba 1c3e 6af4 18be a249 9c3d
00000280: 9b16 90be 3b48 fc3d 0c1a b2be f575 63bd
00000290: 3973 eebd 61c9 4b3e f94d 82be 00ca 503e
000002a0: 3fc5 533e c73f 9fbe cca3 adbe bf95 a4be
000002b0: ce88 c43d 57ca a0be 71d1 afbe 11b6 213d
000002c0: 811b ca3d 4da2 a53e fb6d 453d aaa6 193e
000002d0: 1dbb bd3d d7fb 6ebd d096 973d b249 32be
000002e0: 06bd 833d 4e91 37be 5618 38be ddee 9b3e
000002f0: 08d2 8bbe 6c4d b0bd 9ae3 08be 575c 74be
00000300: edd9 86bd 4759 59be 2835 cdbd c134 b4bd
00000310: 339d 843e f73f 7fbe 9b86 a73e 6007 383e
00000320: 5acc 533e 3cb6 a73d 8646 243e ac2c 893c
00000330: 12b5 ef3d d571 2bbd 89a6 9f3d 21c2 363e
00000340: 6501 29be b201 33be 9c29 27be 383b 813e
00000350: a0c0 b03e 85cd d43b e383 293e e26d a93d
00000360: 4a2e 6abd 869e 983e 652e 2a3e 963c 81be
00000370: f3aa 9b3d 1c0b de3e 7027 933c 691e 7c3e
00000380: 03c8 5ebe 975b 523e ee83 54be abe0 be3b
00000390: 473b 15bd c19b 9cbc e35e 5cbe 88a8 323d
000003a0: 64d9 8ebe 7da6 983e 55f4 763d 7530 b4be
000003b0: 6dbb 223e f465 a13d 017b 3b3e 45c8 8ebc
000003c0: 04d1 7fbe 21c9 89be 1a57 74bd 11c2 923e
000003d0: 1b47 a4be 8170 53be 15de 5c3e 4f30 6bbe
000003e0: 02a8 1ebe dcc9 053e c306 63be 6790 a53e
000003f0: 0088 723c 95c1 82be ade7 f33c ab0e 41be
-0.1994383 -0.10695597 0.26552567 0.044692565 0.32172668 -0.32488123 0.21389924 0.1828179
-0.26906326 -0.30212924 0.51027805 -0.075542204 0.30084673 0.31027475 0.36825928 0.17850119
-0.23344791 -0.30723783 -0.044266842 0.1540851 0.09971665 0.4326723 0.020155288 0.2291352
0.08306574 0.14467457 0.103592515 -0.27283788 0.0945436 0.25942835 0.21389763 -0.32454017
0.34953585 0.25628525 0.4937824 0.48089397 -0.1787702 0.092952035 -0.060876507 0.029110491
-0.26213822 0.085895665 0.11149091 0.24174456 0.027296767 -0.29528436 -0.019795272 0.17029613
0.3947008 0.27724418 0.4682066 0.007255076 0.06833827 0.07438595 -0.33127376 0.32420027
0.10076701 -0.16111617 -0.33935225 -0.12004387 0.023220671 -0.36635008 -0.30726454 0.38383982
-0.1935271 0.10435317 -0.08690268 -0.2773459 0.044105306 0.020888275 0.029779097 -0.28232637
0.010812126 0.024179053 0.18786688 -0.05338239 -0.080818556 0.30704716 0.29418156 0.14642438
-0.32527104 0.36130142 0.0861468 0.28458226 -0.13959248 0.39793682 0.2939668 -0.032258585
-0.2534083 -0.1125104 0.12300072 -0.31644133 0.3977337 -0.08216765 -0.017069368 -0.10117163
0.1454586 -0.12956786 0.19058785 0.090440854 0.0155879995 -0.108017 0.2652067 0.008364816
0.29839236 0.060336474 -0.26108292 -0.18307881 0.36357147 0.23758954 0.31347466 0.16679089
0.05301187 -0.36029544 -0.29120016 0.18013573 0.08702743 0.02756811 -0.34205848 -0.30948082
-0.27832916 -0.0867138 0.13802972 -0.23190683 -0.21562983 -0.114526235 -0.20249474 -0.08926666
0.13918053 0.1622418 -0.015579495 -0.2722177 0.089253604 -0.3498217 -0.29825944 -0.26035953
-0.32781306 0.0604463 -0.31575456 0.08687024 -0.15955646 -0.2279079 -0.052169792 -0.23733932
0.21798052 -0.27508005 0.07736566 -0.06795143 0.25986832 -0.08212995 0.25240445 -0.24595316
0.18227966 -0.3747577 -0.32112753 0.27295685 -0.22034663 0.1530556 -0.14936987 0.07631232
-0.28142247 0.12318464 -0.34785497 -0.055532414 -0.11643071 0.19901039 -0.25450113 0.20389557
0.20680712 -0.31103346 -0.3391403 -0.32145497 0.09596406 -0.31404373 -0.3433948 0.039480273
0.09868527 0.32350388 0.04820059 0.15004984 0.09264205 -0.058345642 0.07401812 -0.17410925
0.06432538 -0.17926523 -0.17978033 0.30455676 -0.2730868 -0.08608517 -0.13368073 -0.2386335
-0.06584535 -0.21225463 -0.100199044 -0.087991245 0.25901183 -0.24926744 0.32719883 0.17971563
0.20683423 0.08189055 0.16042528 0.016744934 0.11704458 -0.041856606 0.07795436 0.17847492
-0.16504438 -0.17481115 -0.16324466 0.25240493 0.3452196 0.0064942264 0.16554217 0.082729116
-0.05717305 0.29808444 0.1661926 -0.25241536 0.07600965 0.4336785 0.017963141 0.24620976
-0.21755986 0.20542751 -0.20753452 0.0058251224 -0.036433484 -0.019117238 -0.21520571 0.043617755
-0.2790023 0.2981452 0.060291607 -0.3519322 0.1589181 0.07880774 0.18308641 -0.01742948
-0.24982077 -0.26911262 -0.05965338 0.28663686 -0.320855 -0.20648386 0.21569093 -0.22967647
-0.15493777 0.13065284 -0.22170548 0.32336733 0.014802933 -0.25538316 0.029773558 -0.18853252

tfl.pseudo_qconst i1 [32, 64]
00000000: d257 6eb4 9ccb a743 1dd2 cc35 4263 70f7
00000010: c596 497e 78d2 6fab e948 6e3f 24e9 a7ad
00000020: 3cd0 dd3e 3703 58eb a97f aa04 30a2 f79a
00000030: 6db0 ff19 573e 6c22 3b0e d1ad ec26 b91d
00000040: c918 1d44 27c5 2551 4fb2 419a b746 3c85
00000050: d8f6 e6dc 10ab 4f10 352c b58b f6cb faa4
00000060: ed81 d919 fcfc 09d5 ba2e 18c9 10bb d8d9
00000070: d4ce 53d2 aaa9 be04 ee24 500c dd31 1af6
00000080: d05d 1038 dbd5 5d39 f5f4 e7a5 f1c7 c14b
00000090: 1133 2ffb c3bd 8601 3856 fcc4 53e0 55e2
000000a0: 1a12 2c2c 0418 2c37 c5f4 b316 520f 265a
000000b0: 5802 ea0e 2dad 7f08 d135 10ad e303 ca03
000000c0: 2b44 dfcb 1daf 391d 082e 5435 5f0e c261
000000d0: 0009 0c7b 810e a133 2149 5b25 6ed2 df22
000000e0: 25d8 deca 3203 1140 0ed9 8ed2 f332 094b
000000f0: 05fe b0dc 3a18 3cf0 4147 c441 b93e eb49
-46 87 110 -76 -100 -53 -89 67
29 -46 -52 53 66 99 112 -9
-59 -106 73 126 120 -46 111 -85
-23 72 110 63 36 -23 -89 -83
60 -48 -35 62 55 3 88 -21
-87 127 -86 4 48 -94 -9 -102
109 -80 -1 25 87 62 108 34
59 14 -47 -83 -20 38 -71 29
-55 24 29 68 39 -59 37 81
79 -78 65 -102 -73 70 60 -123
-40 -10 -26 -36 16 -85 79 16
53 44 -75 -117 -10 -53 -6 -92
-19 -127 -39 25 -4 -4 9 -43
-70 46 24 -55 16 -69 -40 -39
-44 -50 83 -46 -86 -87 -66 4
-18 36 80 12 -35 49 26 -10
-48 93 16 56 -37 -43 93 57
-11 -12 -25 -91 -15 -57 -63 75
17 51 47 -5 -61 -67 -122 1
56 86 -4 -60 83 -32 85 -30
26 18 44 44 4 24 44 55
-59 -12 -77 22 82 15 38 90
88 2 -22 14 45 -83 127 8
-47 53 16 -83 -29 3 -54 3
43 68 -33 -53 29 -81 57 29
8 46 84 53 95 14 -62 97
0 9 12 123 -127 14 -95 51
33 73 91 37 110 -46 -33 34
37 -40 -34 -54 50 3 17 64
14 -39 -114 -46 -13 50 9 75
5 -2 -80 -36 58 24 60 -16
65 71 -60 65 -71 62 -21 73
