anomaly model/quick_athlete_model.tflite (tflite, 5016 bytes, 5 tensors)

arith.constant f4 [1, 16]
-0.13486111 -0.0008944017 0.4507605 0.5460625 0.25721645 0.5492672 -0.2865814 -0.13634071
-0.5863411 -0.16880907 -0.10784687 0.49418318 -0.15770419 0.54169345 0.041467004 0.11863204
00000000: 0819 0abe 4876 6aba 15ca e63e c1ca 0b3f
00000010: e0b1 833e c69c 0c3f ccba 92be e69c 0bbe
00000020: 731a 16bf 49dc 2cbe d2de dcbd 9405 fd3e
00000030: 357d 21be 6cac 0a3f 4ed9 293d 5bf5 f23d

arith.constant1 f4 [16, 32]
-0.004324319 -0.019515386 -0.15903269 0.046207227 -0.18280055 -0.15537922 -0.035386216 -0.023594305
-0.23548886 -0.2717306 0.20523143 0.4273213 0.1284887 -0.30667114 -0.098643616 0.2310077
0.016732149 0.38983974 0.0850341 0.22572179 -0.23233718 -0.062371045 0.1611327 0.44992667
0.20768666 0.19084567 0.06251924 -0.22460768 0.20393528 -0.19074291 0.0888868 0.31549892
0.09407698 0.056077998 0.02058531 0.22301935 -0.24978144 0.14391845 -0.3470374 0.07820465
-0.1904289 -0.17253561 -0.30184215 -0.13334885 -0.207777 -0.19868448 0.16257598 -0.074344456
0.110977076 0.016914798 0.19214311 -0.35849142 0.0013356297 -0.3258458 0.29408744 -0.19901001
0.25750902 0.29852688 0.3418247 -0.2986718 -0.12970729 -0.019902388 -0.24914955 0.031997204
0.16596533 0.39258385 0.0070280824 -0.07555029 -0.16253278 -0.14745711 -0.22282605 -0.15014075
-0.2504119 -0.03976788 0.18551624 -0.38566998 -0.028258434 0.2898619 -0.38784376 -0.25809613
0.24943635 -0.1629691 0.020775698 -0.23470557 0.31525102 -0.075497515 -0.32563356 -0.30696672
0.19852369 -0.033949483 0.2405288 0.16299869 0.40903333 0.35418487 -0.27946356 0.12858593
0.012319444 0.37550664 0.07050755 -0.24130008 -0.084719166 0.12109821 0.14664856 -0.07386933
0.1489781 -0.053728696 -0.16887978 -0.04360012 -0.12652576 0.07838981 0.01521622 0.10746148
-0.00023611129 -0.3997925 -0.17566292 0.3919898 0.0582752 0.16093193 0.34353647 -0.22683077
-0.28156444 0.06596235 0.3715465 -0.23994042 -0.0228138 0.0121632945 -0.26925677 0.15103671
0.0021182515 -0.1980229 0.21964785 0.24526206 -0.09173324 0.2854925 0.24749693 -0.3567876
0.14260903 -0.11064032 0.006151661 0.23245017 -0.073049426 0.17306209 0.02518445 0.20906527
-0.17534585 -0.32616696 -0.13251984 0.055229668 -0.34188178 0.015524195 -0.3629061 0.17107473
0.3008609 -0.09591042 0.1392473 -0.10313421 0.07047631 0.21550769 0.24781127 0.08325711
0.11174632 0.31740758 -0.07489954 0.011461349 0.35360596 -0.24507686 -0.08217275 -0.15220572
0.30956513 0.27480653 0.19105402 -0.24416745 -0.1446084 -0.1599641 -0.39243084 -0.3903487
0.23614639 0.10789732 -0.22380525 0.37974575 -0.13343321 -0.2700266 -0.14755924 -0.32858995
0.11021139 0.058348052 -0.24967873 -0.42207912 0.15238293 0.07001683 -0.10390109 0.010677903
-0.08215741 0.262056 0.20357254 0.17122705 0.07065398 0.19694336 0.05350119 0.20432906
0.026049025 -0.21848154 -0.2654561 0.08222809 -0.037935555 -0.18354791 0.11731941 0.42458874
0.23491643 -0.00081066164 -0.14277574 0.22538175 -0.19873358 0.2683522 -0.24061008 -0.1073023
0.0061658584 0.4169812 -0.08999957 0.12994479 -0.1115137 0.33605117 0.13479373 -0.27186143
0.20103937 0.10144195 -0.33638868 0.08703254 -0.31669995 0.14908959 -0.10749512 -0.12179453
-0.03031407 0.0037309388 -0.21261181 -0.048893135 -0.25501415 -0.24120216 0.4219719 -0.008851157
0.40874732 0.3431457 -0.24904446 0.18045618 -0.023274476 0.11120454 0.19461691 -0.1799989
-0.12260123 -0.04697936 0.111091755 -0.012651809 -0.2626757 0.23322776 -0.13397494 0.3389766
00000000: 04b3 8dbb bbde 9fbc 77d9 22be ca43 3d3d
00000010: 1130 3bbe bb1b 1fbe 23f1 10bd d848 c1bc
00000020: fe23 71be 4620 8bbe 3028 523e dcc9 da3e
00000030: 8b92 033e 0004 9dbe aa05 cabd 488d 6c3e
00000040: dc11 893c 1399 c73e 5c26 ae3d 9d23 673e
00000050: cce9 6dbe c878 7fbd f8ff 243e ca5c e63e
00000060: d0ab 543e 0c6d 433e 160a 803d 8eff 65be
00000070: 69d4 503e 1c52 43be 480a b63d 1389 a13e
00000080: 6fab c03d 0bb2 653d 86a2 a83c 2f5f 643e
00000090: b5c6 7fbe 5c5f 133e e3ae b1be c229 a03d
000000a0: cbff 42be 2dad 30be 0e8b 9abe 9a8c 08be
000000b0: 7ec3 54be f273 4bbe 517a 263e e841 98bd
000000c0: f347 e33d e790 8a3c 2ac1 443e 308c b7be
000000d0: 4c10 af3a 43d5 a6be a192 963e 48c9 4bbe
000000e0: 39d8 833e 84d8 983e a603 af3e 83eb 98be
000000f0: fdd1 04be 550a a3bc 0f21 7fbe 800f 033d
00000100: d1f2 293e c000 c93e d44b e63b 1cba 9abd
00000110: fe6e 26be fffe 16be 832c 64be 7fbe 19be
00000120: fd35 80be a5e3 22bd f8f7 3d3e 8976 c5be
00000130: 3b7e e7bc c768 943e 7593 c6be 2d25 84be
00000140: 3e6c 7f3e 5fe1 26be cc31 aa3c a856 70be
00000150: 9568 a13e 719e 9abd 71b9 a6be be2a 9dbe
00000160: cb49 4b3e 9d0e 0bbd 2f4d 763e 21e9 263e
00000170: d16c d13e b857 b53e d915 8fbe 08ac 033e
00000180: 7ed7 493c 6842 c03e 4366 903d 5e17 77be
00000190: 3e81 adbd 5702 f83d 0a2b 163e ce48 97bd
000001a0: b78d 183e 9f12 5cbd d2ee 2cbe 0a96 32bd
000001b0: f88f 01be d68a a03d 744d 793c c414 dc3d
000001c0: a494 77b9 9ab1 ccbe fbe0 33be e3b2 c83e
000001d0: fab1 6e3d 57cb 243e 03e4 af3e 5346 68be
000001e0: 3729 90be 4517 873d 583b be3e f1b2 75be
000001f0: 02e4 babc 8e48 473c 06dc 89be 5ea9 1a3e
00000200: 5dd2 0a3b 84c6 4abe 5eeb 603e fa25 7b3e
00000210: a3de bbbd 132c 923e d66f 7d3e ddac b6be
00000220: 1a08 123e 6497 e2bd df93 c93b 6b07 6e3e
00000230: f09a 95bd 3037 313e 9f4f ce3c 3515 563e
00000240: dd8d 33be 5bff a6be 48b3 07be 8138 623d
00000250: 210b afbe 3159 7e3c d4ce b9be 372e 2f3e
00000260: 710a 9a3e af6c c4bd d896 0e3e 0738 d3bd
00000270: e255 903d 0cae 5c3e 3dc2 7d3e b482 aa3d
00000280: 41db e43d 3f83 a23e ee64 99bd 62c8 3b3c
00000290: d70b b53e 6ef5 7abe 304a a8bd d1db 1bbe
000002a0: 527f 9e3e 71b3 8c3e aaa3 433e 0807 7abe
000002b0: 3914 14be a1cd 23be b2ec c8be c9db c7be
000002c0: 5cd0 713e 45f9 dc3d 342d 65be 096e c23e
000002d0: b7a2 08be ed40 8abe c519 17be f13c a8be
000002e0: 82b6 e13d 5efe 6e3d c8ab 7fbe c11a d8be
000002f0: 450a 1c3e fc64 8f3d 18ca d4bd 5ff2 2e3c
00000300: 2542 a8bd 342c 863e 5275 503e 2556 2f3e
00000310: 09b3 903d 85ab 493e 1024 5b3d a33b 513e
00000320: c464 d53c a0b9 5fbe dde9 87be 3367 a83d
00000330: 5062 1bbd fcf3 3bbe 2945 f03d b263 d93e
00000340: ef8d 703e 9582 54ba ce33 12be 79ca 663e
00000350: d180 4bbe 7665 893e 7d62 76be 4fc1 dbbd
00000360: f80a ca3b 8f7e d53e b251 b8bd 3f10 053e
00000370: 4b61 e4bd e60e ac3e 5e07 0a3e 6c31 8bbe
00000380: 44dd 4d3e ccc0 cf3d 233b acbe 1e3e b23d
00000390: 7f26 a2be f1aa 183e 6726 dcbd 696f f9bd
000003a0: 3655 f8bc c482 743b e9b6 59be 2b44 48bd
000003b0: 3791 82be b3fd 76be b30c d83e 7104 11bc
000003c0: 5447 d13e cbb0 af3e 8305 7fbe 81c9 383e
000003d0: 1daa bebc 35bf e33d a849 473e a251 38be
000003e0: 5b16 fbbd 6e6d 40bd 1384 e33d 8849 4fbc
000003f0: 6e7d 86be 42d3 6e3e ba30 09be 578e ad3e

sequential_1/dense_1_2/BiasAdd/ReadVariableOp f4 [16]
0.077382155 -0.042274393 0.028749948 -0.012832014 -0.064614736 -0.029924856 0.071667746 0.106074214
0.06691332 0.08449589 0.06103921 -0.03792876 0.06527749 -0.030726869 -0.061086725 -0.023304055
00000000: 897a 9e3d ea27 2dbd 0385 eb3c 5e3d 52bc
00000010: bb54 84bd f924 f5bc 8ac6 923d 703d d93d
00000020: da09 893d 2e0c ad3d 4004 7a3d 305b 1bbd
00000030: 34b0 853d eab6 fbbc 1336 7abd 25e8 bebc

sequential_1/dense_1/BiasAdd/ReadVariableOp f4 [32]
-0.038753126 0.040803757 -0.022661451 -0.05312102 -0.040995568 -0.035907883 -0.053646874 0.0050178654
-0.006205379 0.015134242 0.010026692 0.122209474 -0.0036333688 -0.0059743184 0.08307482 0.08480368
0.07432413 0.080938905 0.024203636 -0.009068465 0.04625089 -0.04101193 0.05395731 0.07932457
-0.026234599 0.050103918 0.030283574 0.010349373 0.041144647 0.029392263 -0.029117217 -0.021525607
00000000: 99bb 1ebd d721 273d 82a4 b9bc 6d95 59bd
00000010: f8ea 27bd 2514 13bd d3bc 5bbd e86c a43b
00000020: 7e56 cbbb 9df5 773c ff46 243c f648 fa3d
00000030: d01d 6ebb 37c4 c3bb 2223 aa3d 8dad ad3d
00000040: 4037 983d 4cc3 a53d b446 c63c e693 14bc
00000050: 9371 3d3d 20fc 27bd 5702 5d3d ec74 a23d
00000060: f1e9 d6bc c439 4d3d 4215 f83c 6b90 293c
00000070: 4a87 283d 0bc8 f03c 3b87 eebc 7856 b0bc

sequential_1/dense_1/MatMul f4 [32, 5]
0.24022047 -0.093674265 -0.33414295 0.33811447 0.32248902 -0.31406212 -0.3893583 0.2899694
0.010870432 -0.38344914 0.21394944 0.2838941 0.099225916 0.21221617 -0.32287064 -0.39082468
-0.24050672 -0.34763202 0.20952453 0.33594662 0.12982784 -0.06295403 -0.2582157 0.3102526
-0.06856433 0.12123793 0.037425607 0.31434315 -0.28701103 0.2943695 0.37071213 0.29008013
-0.04058168 -0.15994036 0.29595178 0.29413047 0.21484798 0.17790894 0.04790456 -0.17374618
-0.16691515 -0.17812121 -0.045136653 -0.19000427 0.43002865 0.36311176 0.20829189 0.08652164
0.21865752 -0.45167404 -0.15742369 -0.30367827 -0.020305712 0.07460404 -0.31229216 -0.2900301
0.44402435 -0.33044955 -0.42959815 -0.18976013 0.29527283 0.12637073 0.05789423 -0.061161857
-0.008376697 0.08844442 -0.18685372 0.19035925 -0.1007236 0.04664489 0.058446396 0.27208465
-0.45025238 0.14280029 0.22889256 -0.23812218 0.1591675 -0.055860322 -0.047168434 -0.18144561
-0.15957035 0.36825502 -0.4041739 -0.47316605 0.22493728 0.25738275 0.40972468 -0.40711793
-0.38685483 0.2156991 -0.07082904 -0.041209836 0.21446605 -0.023852915 -0.062097114 0.17064881
-0.20870672 -0.3252172 0.35763344 -0.29913738 -0.18031387 -0.04794258 0.4080775 -0.14925712
0.312509 0.11494201 -0.13507502 0.3569984 0.23661734 0.057176847 -0.23057902 0.20342124
0.15968652 0.034337096 -0.038891003 0.36915883 0.346323 0.11917186 -0.43346694 -0.27497992
0.2593747 -0.12012402 -0.35037345 -0.2303697 -0.3620778 0.24350996 0.3800945 -0.069710486
-0.10473316 0.4322094 0.22261469 -0.36719036 0.45682326 -0.25445032 -0.27552846 -0.25592178
0.29766718 0.2349651 0.1860229 0.35610744 -0.04534194 -0.2956899 0.4130024 -0.22626366
-0.1362036 0.35928285 0.23455383 0.10148807 0.010586806 -0.13270628 -0.2596866 0.019543432
-0.17511173 -0.013336924 -0.107035525 0.33501804 0.06353715 -0.32556245 0.41701862 0.2735781
00000000: 5bfc 753e 4bd8 bfbd c914 abbe 571d ad3e
00000010: 481d a53e c0cc a0be f959 c7be df76 943e
00000020: e519 323c 7253 c4be 9015 5b3e 915a 913e
00000030: f536 cb3d 324f 593e 4d4f a5be 2c1a c8be
00000040: 6547 76be d3fc b1be 998d 563e 3201 ac3e
00000050: 97f1 043e 0bee 80bd d934 84be 6ed9 9e3e
00000060: 756b 8cbd 984b f83d 984b 193d 96f1 a03e
00000070: 1cf3 92be 99b7 963e fbcd bd3e 6285 943e
00000080: fa38 26bd 68c7 23be fe86 973e 4598 963e
00000090: 1c01 5c3e c32d 363e 9237 443d 85ea 31be
000000a0: ceeb 2abe 6865 36be 36e1 38bd 7b90 42be
000000b0: b72c dc3e c9e9 b93e 784a 553e 4232 b13d
000000c0: c2e7 5f3e d241 e7be ad33 21be b87b 9bbe
000000d0: 2a58 a6bc 01ca 983d c2e4 9fbe d37e 94be
000000e0: 2957 e33e af30 a9be 4af4 dbbe 7b50 42be
000000f0: 002e 973e 5467 013e 8022 6d3d db84 7abd
00000100: 6a3e 09bc 5922 b53d 9556 3fbe 89ed 423e
00000110: 2d48 cebd b60e 3f3d 7d65 6f3d ae4e 8b3e
00000120: 7b87 e6be 3d3a 123e d062 6a3e 4dd6 73be
00000130: cefc 223e cbcd 64bd b033 41bd e1cc 39be
00000140: 6966 23be ec8b bc3e e2ef cebe d242 f2be
00000150: f555 663e acc7 833e 6fc7 d13e c371 d0be
00000160: d611 c6be 3ae0 5c3e d10e 91bd a5cb 28bd
00000170: fd9c 5b3e 3067 c3bc 8b59 7ebd 90be 2e3e
00000180: 37b7 55be de82 a6be bb1b b73e 8928 99be
00000190: 33a4 38be 705f 44bd 89ef d03e dcd6 18be
000001a0: 2e01 a03e b766 eb3d 1b51 0abe 7fc8 b63e
000001b0: d14b 723e 4532 6a3d e81c 6cbe a84d 503e
000001c0: dd84 233e 0ea5 0c3d 2c4c 1fbd 6302 bd3e
000001d0: 4051 b13e 6010 f43d 61ef ddbe 2bca 8cbe
000001e0: c3cc 843e 9503 f6bd 2664 b3be 09e6 6bbe
000001f0: 4362 b9be ad5a 793e bf9b c23e 5fc4 8ebd
00000200: 577e d6bd 8d4a dd3e 1bf5 633e 6000 bcbe
00000210: bde4 e93e 5047 82be 1112 8dbe 2e08 83be
00000220: d567 983e b19a 703e c97c 3e3e b753 b63e
00000230: 78b8 39bd ab64 97be 0d75 d33e a9b1 67be
00000240: f578 0bbe ecf3 b73e e12e 703e fad8 cf3d
00000250: 4874 2d3c 28e4 07be a4f5 84be 8c19 a03c
00000260: 7d50 33be 1d83 5abc 7135 dbbd 7c87 ab3e
00000270: c41f 823d 1fb0 a6be 7783 d53e 6e12 8c3e
